{"class_name": "Sequential", "keras_version": "2.2.4", "backend": "tensorflow", "config": {"name": "sequential_1", "layers": [{"class_name": "Conv2D", "config": {"name": "conv2d_1", "bias_constraint": null, "dtype": "float32", "padding": "valid", "activation": "relu", "kernel_size": [2, 2], "kernel_constraint": null, "dilation_rate": [1, 1], "strides": [1, 1], "filters": 32, "trainable": true, "data_format": "channels_last", "use_bias": true, "kernel_regularizer": null, "activity_regularizer": null, "batch_input_shape": [null, 20, 11, 1], "bias_initializer": {"class_name": "Zeros", "config": {}}, "bias_regularizer": null, "kernel_initializer": {"class_name": "VarianceScaling", "config": {"distribution": "uniform", "mode": "fan_avg", "seed": null, "scale": 1.0}}}}, {"class_name": "MaxPooling2D", "config": {"name": "max_pooling2d_1", "data_format": "channels_last", "padding": "valid", "trainable": true, "pool_size": [2, 2], "strides": [2, 2]}}, {"class_name": "Dropout", "config": {"name": "dropout_1", "trainable": true, "rate": 0.5, "seed": null, "noise_shape": null}}, {"class_name": "Flatten", "config": {"name": "flatten_1", "trainable": true, "data_format": "channels_last"}}, {"class_name": "Dense", "config": {"name": "dense_1", "kernel_regularizer": null, "trainable": true, "kernel_constraint": null, "activation": "relu", "units": 128, "use_bias": true, "bias_constraint": null, "activity_regularizer": null, "bias_initializer": {"class_name": "Zeros", "config": {}}, "bias_regularizer": null, "kernel_initializer": {"class_name": "VarianceScaling", "config": {"distribution": "uniform", "mode": "fan_avg", "seed": null, "scale": 1.0}}}}, {"class_name": "Dropout", "config": {"name": "dropout_2", "trainable": true, "rate": 0.5, "seed": null, "noise_shape": null}}, {"class_name": "Dense", "config": {"name": "dense_2", "kernel_regularizer": null, "trainable": true, "kernel_constraint": null, "activation": "sigmoid", "units": 3, "use_bias": true, "bias_constraint": null, "activity_regularizer": null, "bias_initializer": {"class_name": "Zeros", "config": {}}, "bias_regularizer": null, "kernel_initializer": {"class_name": "VarianceScaling", "config": {"distribution": "uniform", "mode": "fan_avg", "seed": null, "scale": 1.0}}}}]}}