{"config": {"name": "sequential_1", "layers": [{"config": {"batch_input_shape": [null, 20, 11, 1], "dtype": "float32", "strides": [1, 1], "bias_constraint": null, "padding": "valid", "name": "conv2d_1", "kernel_regularizer": null, "trainable": true, "kernel_size": [2, 2], "bias_regularizer": null, "activity_regularizer": null, "kernel_constraint": null, "bias_initializer": {"config": {}, "class_name": "Zeros"}, "activation": "relu", "data_format": "channels_last", "filters": 32, "use_bias": true, "kernel_initializer": {"config": {"seed": null, "scale": 1.0, "distribution": "uniform", "mode": "fan_avg"}, "class_name": "VarianceScaling"}, "dilation_rate": [1, 1]}, "class_name": "Conv2D"}, {"config": {"strides": [2, 2], "data_format": "channels_last", "padding": "valid", "name": "max_pooling2d_1", "pool_size": [2, 2], "trainable": true}, "class_name": "MaxPooling2D"}, {"config": {"seed": null, "name": "dropout_1", "noise_shape": null, "trainable": true, "rate": 0.25}, "class_name": "Dropout"}, {"config": {"name": "flatten_1", "trainable": true, "data_format": "channels_last"}, "class_name": "Flatten"}, {"config": {"name": "dense_1", "kernel_regularizer": null, "trainable": true, "kernel_initializer": {"config": {"seed": null, "scale": 1.0, "distribution": "uniform", "mode": "fan_avg"}, "class_name": "VarianceScaling"}, "activity_regularizer": null, "bias_initializer": {"config": {}, "class_name": "Zeros"}, "units": 128, "kernel_constraint": null, "use_bias": true, "bias_constraint": null, "bias_regularizer": null, "activation": "relu"}, "class_name": "Dense"}, {"config": {"seed": null, "name": "dropout_2", "noise_shape": null, "trainable": true, "rate": 0.25}, "class_name": "Dropout"}, {"config": {"name": "dense_2", "kernel_regularizer": null, "trainable": true, "kernel_initializer": {"config": {"seed": null, "scale": 1.0, "distribution": "uniform", "mode": "fan_avg"}, "class_name": "VarianceScaling"}, "activity_regularizer": null, "bias_initializer": {"config": {}, "class_name": "Zeros"}, "units": 2, "kernel_constraint": null, "use_bias": true, "bias_constraint": null, "bias_regularizer": null, "activation": "sigmoid"}, "class_name": "Dense"}]}, "backend": "tensorflow", "keras_version": "2.2.4", "class_name": "Sequential"}