{"keras_version": "2.2.4", "class_name": "Sequential", "backend": "tensorflow", "config": {"layers": [{"class_name": "Conv2D", "config": {"padding": "valid", "kernel_initializer": {"class_name": "VarianceScaling", "config": {"scale": 1.0, "distribution": "uniform", "seed": null, "mode": "fan_avg"}}, "dilation_rate": [1, 1], "bias_constraint": null, "kernel_size": [2, 2], "data_format": "channels_last", "strides": [1, 1], "use_bias": true, "dtype": "float32", "trainable": true, "activity_regularizer": null, "kernel_constraint": null, "activation": "relu", "name": "conv2d_1", "filters": 32, "bias_regularizer": null, "kernel_regularizer": null, "batch_input_shape": [null, 20, 11, 1], "bias_initializer": {"class_name": "Zeros", "config": {}}}}, {"class_name": "MaxPooling2D", "config": {"padding": "valid", "pool_size": [2, 2], "data_format": "channels_last", "strides": [2, 2], "name": "max_pooling2d_1", "trainable": true}}, {"class_name": "Dropout", "config": {"trainable": true, "seed": null, "noise_shape": null, "rate": 0.25, "name": "dropout_1"}}, {"class_name": "Flatten", "config": {"name": "flatten_1", "trainable": true, "data_format": "channels_last"}}, {"class_name": "Dense", "config": {"units": 128, "kernel_constraint": null, "bias_constraint": null, "kernel_initializer": {"class_name": "VarianceScaling", "config": {"scale": 1.0, "distribution": "uniform", "seed": null, "mode": "fan_avg"}}, "use_bias": true, "trainable": true, "activity_regularizer": null, "activation": "relu", "name": "dense_1", "bias_regularizer": null, "kernel_regularizer": null, "bias_initializer": {"class_name": "Zeros", "config": {}}}}, {"class_name": "Dropout", "config": {"trainable": true, "seed": null, "noise_shape": null, "rate": 0.25, "name": "dropout_2"}}, {"class_name": "Dense", "config": {"units": 2, "kernel_constraint": null, "bias_constraint": null, "kernel_initializer": {"class_name": "VarianceScaling", "config": {"scale": 1.0, "distribution": "uniform", "seed": null, "mode": "fan_avg"}}, "use_bias": true, "trainable": true, "activity_regularizer": null, "activation": "sigmoid", "name": "dense_2", "bias_regularizer": null, "kernel_regularizer": null, "bias_initializer": {"class_name": "Zeros", "config": {}}}}], "name": "sequential_1"}}