{"keras_version": "2.2.4", "backend": "tensorflow", "config": {"name": "sequential_1", "layers": [{"config": {"bias_initializer": {"config": {}, "class_name": "Zeros"}, "bias_constraint": null, "bias_regularizer": null, "filters": 32, "dtype": "float32", "activation": "relu", "padding": "valid", "activity_regularizer": null, "name": "conv2d_1", "batch_input_shape": [null, 20, 11, 1], "kernel_initializer": {"config": {"mode": "fan_avg", "scale": 1.0, "distribution": "uniform", "seed": null}, "class_name": "VarianceScaling"}, "kernel_regularizer": null, "kernel_size": [2, 2], "kernel_constraint": null, "data_format": "channels_last", "dilation_rate": [1, 1], "strides": [1, 1], "use_bias": true, "trainable": true}, "class_name": "Conv2D"}, {"config": {"name": "max_pooling2d_1", "data_format": "channels_last", "trainable": true, "padding": "valid", "pool_size": [2, 2], "strides": [2, 2]}, "class_name": "MaxPooling2D"}, {"config": {"name": "dropout_1", "seed": null, "rate": 0.5, "noise_shape": null, "trainable": true}, "class_name": "Dropout"}, {"config": {"name": "flatten_1", "data_format": "channels_last", "trainable": true}, "class_name": "Flatten"}, {"config": {"bias_initializer": {"config": {}, "class_name": "Zeros"}, "bias_constraint": null, "bias_regularizer": null, "kernel_constraint": null, "activation": "relu", "activity_regularizer": null, "units": 128, "name": "dense_1", "kernel_initializer": {"config": {"mode": "fan_avg", "scale": 1.0, "distribution": "uniform", "seed": null}, "class_name": "VarianceScaling"}, "kernel_regularizer": null, "use_bias": true, "trainable": true}, "class_name": "Dense"}, {"config": {"name": "dropout_2", "seed": null, "rate": 0.5, "noise_shape": null, "trainable": true}, "class_name": "Dropout"}, {"config": {"bias_initializer": {"config": {}, "class_name": "Zeros"}, "bias_constraint": null, "bias_regularizer": null, "kernel_constraint": null, "activation": "sigmoid", "activity_regularizer": null, "units": 2, "name": "dense_2", "kernel_initializer": {"config": {"mode": "fan_avg", "scale": 1.0, "distribution": "uniform", "seed": null}, "class_name": "VarianceScaling"}, "kernel_regularizer": null, "use_bias": true, "trainable": true}, "class_name": "Dense"}]}, "class_name": "Sequential"}